Code/logs/checkpoints/SGAN-CNN/best_model.onnx (onnx, 378318 bytes, 10 tensors)

classifier.fc.0.weight f4 [128, 128]
0	0x3e0fdf2c	0.14049977
1	0x3e19e40c	0.15028399
2	0x3d18936b	0.037249964
3	0x3dd96133	0.106142424
4	0x3d1ec18f	0.03875881
5	0x3e0cf245	0.13764293
6	0xbd2a1f0e	-0.041533522
7	0x3e14d6e8	0.14535105
8	0xbcdae600	-0.026721
9	0x3dd58c1d	0.10427115
10	0xbdae4886	-0.085099265
11	0x3d9f5777	0.077803545
12	0x3c92dbfb	0.01792716
13	0xbe158bf2	-0.14604166
14	0x3d1136dd	0.035452712
15	0x3e0cea77	0.13761316
16	0x3d0984df	0.03357398
17	0xbdc5ba77	-0.09654706
18	0x3c31ea50	0.010859087
19	0xbddfd495	-0.10929219
20	0xbbbf6fa4	-0.005842166
21	0x3e5f9646	0.21834669
22	0xbc745073	-0.014911759
23	0x3dab20eb	0.08355888
24	0xbc5096a0	-0.012731224
25	0x3dbcb515	0.09214226
26	0x3d9fa780	0.0779562
27	0x3c82c092	0.015960965
28	0xbd1785af	-0.036992725
29	0x3ae5d16b	0.0017533725
30	0x3df1bce1	0.11803604
31	0x3d93a6dc	0.0720956
32	0x3e1712d1	0.14753272
33	0x3cdd117b	0.026985874
34	0xbde712fd	-0.112829186
35	0xbb8aaa54	-0.0042317305
36	0xbd9be6ce	-0.07612382
37	0xbd7a5440	-0.061115503
38	0xbd92b67a	-0.07163711
39	0x3dc1bead	0.09460197
40	0x3c2ed899	0.010671758
41	0x3d3d89dc	0.04627405
42	0xbdabe228	-0.08392745
43	0x3e58f3fb	0.21186821
44	0x3d62fff2	0.05541987
45	0x3ddbaf44	0.10726789
46	0xbc7cc0b2	-0.0154268015
47	0xbd90bb9a	-0.07067032
48	0x3dc9afcf	0.09847986
49	0x3e3e3645	0.1857539
50	0xbbb48598	-0.0055090897
51	0xbd9f06bf	-0.077649586
52	0x3e29810d	0.16553135
53	0x3dc57481	0.09641362
54	0x3ccc23bd	0.024919385
55	0x3cd52dbf	0.02602279
56	0xbe00a895	-0.12564309
57	0x3ccd7493	0.025080001
58	0x3d6b8db0	0.05750817
59	0xbcadfb6e	-0.021238055
60	0x3c077c91	0.008269445
61	0x3bc1b783	0.005911769
62	0x3ddae5d0	0.106883645
63	0xbd1980cc	-0.037476346
64	0x3d999e47	0.07500892
65	0x3d7668e4	0.060158625
66	0x3d1f0a6d	0.038828302
67	0x3dc88349	0.09790666
68	0xbcfa2bdb	-0.03053849
69	0x3cef048e	0.029176977
70	0x3e3b7830	0.18307567
71	0x3e46a435	0.19398578
72	0xbd53ac10	-0.051677763
73	0x3c0f90b6	0.008762529
74	0xbdce92da	-0.100866035
75	0x3e29beed	0.16576739
76	0xbe0851d8	-0.13312471
77	0xbd1ccee6	-0.03828325
78	0x3c5450f0	0.01295875
79	0x3db22e07	0.08700185
80	0xbd7f2040	-0.062286615
81	0x3d987816	0.074447796
82	0xbb1ed9dd	-0.0024238743
83	0x3d8ca971	0.06868256
84	0x3db50836	0.08839457
85	0xbdf966b3	-0.121777914
86	0xbd2ee738	-0.042700976
87	0x3e36321c	0.17792553
88	0xbc33de5d	-0.0109783085
89	0x3cd2cdfa	0.025732983
90	0xb9683d72	-0.00022148134
91	0x3e222bca	0.15837017
92	0xbdaa9823	-0.08329799
93	0x3e284e00	0.16436005
94	0xbd86959d	-0.06571505
95	0xbd1a2e06	-0.037641548
96	0x3e2a861a	0.16652718
97	0x3e077239	0.13227166
98	0x3d0dd971	0.034631196
99	0xbc82a9b0	-0.015950054
100	0x3e13703c	0.14398283
101	0x3d265066	0.040604018
102	0x3d90ee8e	0.07076751
103	0xbc65e41c	-0.014031436
104	0x3e3ee2d6	0.18641219
105	0x3e424388	0.18971074
106	0x3c5e5419	0.013569855
107	0x3d654e08	0.05598262
108	0xbe089035	-0.1333626
109	0x3e52b6bd	0.20577522
110	0x3d799521	0.060933236
111	0xbc197116	-0.009365341
112	0xbc4b25eb	-0.012399177
113	0x3da74e41	0.081692226
114	0x3c571ccc	0.013129424
115	0xbcb4ac1d	-0.022054726
116	0x3c503ef3	0.012710321
117	0x3e0f3e64	0.13988644
118	0x3e81afbd	0.2532939
119	0x3d1ab26d	0.037767816
120	0xbd340d78	-0.043958157
121	0x3e07fc8a	0.1327993
122	0x3d13a212	0.036043234
123	0x3cf420e9	0.029800849
124	0x3d25c34e	0.04046946
125	0xbda67090	-0.08126938
126	0xbb58becb	-0.0033072706
127	0x3c3cc31c	0.011521127
128	0x3ba1df27	0.004939932
129	0x3cad039c	0.021119885
130	0x3d7c756f	0.06163543
131	0xba19595f	-0.0005849804
132	0xbd990974	-0.07472506
133	0x3d8f4ce8	0.069970906
134	0xbb773eef	-0.003772672
135	0xbcbd6a47	-0.023121966
136	0xbd6d2767	-0.057898905
137	0x3d68512e	0.056718044
138	0x3d0383d9	0.03210816
139	0xbd2ea147	-0.042634275
140	0xbc570726	-0.013124263
141	0xbd31de08	-0.043424636
142	0x3cea2e8f	0.028586654
143	0x3d5e84cd	0.054325867
144	0xbb1a55e6	-0.0023549735
145	0xbda2e3ec	-0.07953629
146	0xbdac5630	-0.084148765
147	0xbd9b89a1	-0.0759461
148	0xbd2c9a2a	-0.04213921
149	0x3d68979f	0.056785222
150	0x3c21132b	0.00983123
151	0x3c678b0b	0.0141322715
152	0xbd63107a	-0.055435635
153	0xbdbaf746	-0.09129195
154	0xbd8065e1	-0.06269432
155	0x3cbe7bb9	0.023252355
156	0xbd8470cd	-0.064668275
157	0xbd01ddfe	-0.03170585
158	0x3c510be4	0.012759183
159	0xbd6950d7	-0.05696186
160	0xbd602632	-0.054723926
161	0x3d82a433	0.06378975
162	0xbddcbdb3	-0.1077837
163	0xbda85cb4	-0.08220807
164	0xbd06b214	-0.032884672
165	0x3b6c3ab0	0.0036045723
166	0x3d446ca5	0.047955174
167	0x3c3da614	0.011575241
168	0x3d00935c	0.031390533
169	0xbab689da	-0.0013926581
170	0xbd37225e	-0.04471051
171	0xbdbaaf34	-0.091154486
172	0xbd269ff2	-0.04067988
173	0x3b76ffb6	0.0037689037
174	0xbd50b439	-0.050953124
175	0x3bf8bc9e	0.0075908443
176	0xbcd56fde	-0.026054319
177	0xb99f2612	-0.00030355208
178	0x3d088aa8	0.033335358
179	0x3ce9dce9	0.028547721
180	0xbccb0051	-0.024780424
181	0x3d8b845b	0.06812354
182	0x3da0b25e	0.07846521
183	0xbd159512	-0.036519118
184	0xbda4059d	-0.08008883
185	0xbced2535	-0.028948406
186	0xbdbd0578	-0.09229559
187	0x3d7f91f6	0.06239506
188	0xbd515ead	-0.05111568
189	0x3d9e67ec	0.07734665
190	0xbdbfadd3	-0.09359326
191	0xbd9c4b3c	-0.07631537
192	0x3da4411e	0.080202326
193	0xbbd98af4	-0.006638879
194	0xba111b3d	-0.000553537
195	0x3d52a7ad	0.05142944
196	0x3d42a13b	0.047517043
197	0xbdbedcb8	-0.093194425
198	0xbccbb965	-0.024868676
199	0x3d0c5278	0.034258336
200	0xbc9da194	-0.019242086
201	0x3c4d99e2	0.012548896
202	0xbdb02998	-0.086016834
203	0xbcfe4db8	-0.031042919
204	0xbdb015ae	-0.08597885
205	0xbd66569d	-0.056234945
206	0xbd716649	-0.058935437
207	0x3d370148	0.044678956
208	0x3d4ea16a	0.050446905
209	0xbd880acf	-0.066426866
210	0xbdc6c321	-0.09705187
211	0x3cdc35aa	0.026881058
212	0xbd502e3f	-0.050825354
213	0x3c4106ed	0.011781436
214	0xbdddc1e9	-0.10828001
215	0xbcd47869	-0.025936322
216	0x3d0dfa32	0.034662433
217	0x3c630683	0.013856533
218	0xbbdfad58	-0.006826084
219	0x3c958fc1	0.018257024
220	0xbdd05ad8	-0.10173577
221	0x3d6c3add	0.057673324
222	0x3d11302c	0.03544633
223	0xbbc9ba0f	-0.006156213
224	0xbd51983e	-0.05117058
225	0x3d509b91	0.05092961
226	0xbd648bd6	-0.05579742
227	0x3d0cb6f0	0.03435415
228	0xbd0f38e8	-0.03496638
229	0xbdaa1963	-0.083056234
230	0xbcc24fcc	-0.02371969
231	0xbd1a7ff8	-0.037719697
232	0x3a989d83	0.0011643622
233	0x3bd21144	0.0064107496
234	0x3d5f2512	0.054478712
235	0x3b673785	0.0035280895
236	0xbd97eb72	-0.074179545
237	0xbd56ff01	-0.052489284
238	0x3c7bc229	0.015366116
239	0xbcf05829	-0.029338913
240	0xbb998fee	-0.004686347
241	0xbbc50c58	-0.0060134344
242	0xbd1c5054	-0.038162544
243	0xbce04aec	-0.027379476
244	0x39b7790d	0.0003499467
245	0xbdb686c0	-0.0891242
246	0xbd44e3f1	-0.048068944
247	0xbd5ab86b	-0.05339853
248	0xbdb777aa	-0.08958371
249	0x3c9ed004	0.019386299
250	0x3d7d449a	0.061833
251	0x3d8d7eb4	0.06908932
252	0x3c11b2c7	0.0088927215
253	0xbdded9ea	-0.108814076
254	0xbd978837	-0.07399028
255	0xbd65e0bd	-0.05612253

classifier.fc.0.bias f4 [128]
0	0x3da19276	0.07889263
1	0xbdef5503	-0.116861366
2	0x3e092d48	0.1339618
3	0x3d0bc9d8	0.03412804
4	0xbd2595a9	-0.04042593
5	0xbd3c71ce	-0.04600697
6	0xbdfdc000	-0.12390137
7	0x3de735f8	0.112895906
8	0x3bed3a0f	0.007239587
9	0x3d1e518a	0.03865198
10	0xbdc199d1	-0.09453166
11	0xbce07c4e	-0.027403023
12	0xbc379878	-0.011205785
13	0x3cacc999	0.021092223
14	0xbd907ca5	-0.07055024
15	0xbcfb0683	-0.030642753
16	0x3da44ddb	0.08022662
17	0x3d1e5f4c	0.0386651
18	0xbcf31de3	-0.029677337
19	0xbce493d3	-0.02790252
20	0xbda0ddb3	-0.07854786
21	0x3b1aa21c	0.002359516
22	0x3dc44292	0.0958301
23	0xbdcefa14	-0.10106292
24	0xbda4c8ec	-0.08046135
25	0x3d508ae6	0.050913714
26	0xbdb57a4c	-0.08861217
27	0xbda11a96	-0.07866399
28	0xbd061e4a	-0.03274373
29	0x3b80f828	0.0039358325
30	0xbd246e18	-0.040144056
31	0xbd634c93	-0.05549295
32	0xbdbd029b	-0.092290126
33	0xbdc493a2	-0.09598471
34	0xbc33d7cb	-0.010976742
35	0xbd729b6d	-0.059230257
36	0xbdd34082	-0.10315038
37	0xbca8ebc3	-0.020620232
38	0x3b1ef43c	0.0024254462
39	0xbd19d475	-0.03755613
40	0xbd299e27	-0.04141059
41	0xbdb40c78	-0.08791441
42	0xbcaa2709	-0.020770567
43	0xbe54eb74	-0.20792943
44	0xbd241d14	-0.040066794
45	0xbd9583ec	-0.07300553
46	0x3e24de9b	0.16100542
47	0xbc96dc0b	-0.018415472
48	0x3dd3199d	0.1030762
49	0x3d17aa83	0.037027847
50	0x3d03de1e	0.03219425
51	0x3d6c1d84	0.057645336
52	0x3d2a4063	0.04156531
53	0xbe05fdad	-0.13085051
54	0x3d7bcd7f	0.061475273
55	0x3b9c2e4d	0.0047662617
56	0x3d81a185	0.063296355
57	0xbe03b180	-0.1286068
58	0xbcb3853d	-0.021914119
59	0xbcc27aec	-0.023740254
60	0xbc8366ad	-0.01604017
61	0x3dad8f7d	0.08474634
62	0x3d48d4e0	0.04903114
63	0xbd9d2a43	-0.076740764
64	0xbda0d9d0	-0.078540444
65	0x3cddece8	0.027090505
66	0xbd56c4f1	-0.05243391
67	0x3c585d73	0.013205874
68	0x3ddf1b16	0.10893838
69	0xbd73f8d8	-0.059563488
70	0xbd8c3be6	-0.06847362
71	0xbd0dc697	-0.03461322
72	0xbd00dcfd	-0.03146075
73	0xbc3a42f6	-0.011368504
74	0x3d62c3e1	0.055362586
75	0xbd803abe	-0.06261204
76	0x3da1245d	0.07868264
77	0xbdd6e71e	-0.10493301
78	0x3da1fc31	0.0790943
79	0xbd7feb8c	-0.062480494
80	0xbd32a46c	-0.043613836
81	0xbdb21cb1	-0.08696879
82	0x3dc7a673	0.097485445
83	0xbd39a47a	-0.045322873
84	0xbd4b620f	-0.049654063
85	0xbd56e30a	-0.052462615
86	0x3be0facc	0.006865835
87	0x3d77e1c7	0.060518052
88	0x3d8edda7	0.069758706
89	0xbdd28a16	-0.10280244
90	0xbd0a715a	-0.033799507
91	0xbdb698d9	-0.08915872
92	0x3ce9eaf0	0.02855441
93	0xbd612745	-0.05496909
94	0x3decd5f2	0.11564244
95	0x3ba5901c	0.0050525796
96	0xbda8b5ff	-0.08237838
97	0x3d3212b2	0.04347486
98	0xbd1e3ec0	-0.03863406
99	0xbdbb6f9d	-0.09152148
100	0xbda68176	-0.081301615
101	0x3cf6e318	0.030137584
102	0x3d4745bd	0.048650492
103	0xbdd7c725	-0.10536031
104	0xbc400743	-0.011720481
105	0x3d09d107	0.03364661
106	0xbc468465	-0.012116526
107	0xbdde71bc	-0.10861537
108	0x3d3bd86f	0.045860704
109	0x3c2f3e2e	0.010695977
110	0x3e5bfeda	0.21483937
111	0x3e09a4f9	0.13441838
112	0xbdbaf475	-0.09128658
113	0x3d1fb503	0.038990986
114	0xbda6b1bf	-0.08139371
115	0x3d7dfae6	0.062006854
116	0xbdcdeb69	-0.100546665
117	0x3dd4f454	0.103981644
118	0x3c26039f	0.010132699
119	0x3d99d21c	0.07510778
120	0xbb193f1b	-0.002338356
121	0x3c5628c8	0.013071246
122	0x3dd7a2c9	0.10529096
123	0xbc96cfff	-0.018409727
124	0xbdac0882	-0.0840006
125	0xbc699f9a	-0.014259243
126	0xbd16107b	-0.03663681
127	0xbdab1752	-0.08354057

classifier.fc.3.weight f4 [4, 128]
0	0x3dc99df8	0.09844583
1	0x3c234341	0.009964765
2	0xbeb33790	-0.35003328
3	0x3dd63af8	0.10460466
4	0xbdf4d3fa	-0.11954494
5	0xbc2fdde9	-0.01073406
6	0x3d4926f3	0.04910941
7	0xbf053fe4	-0.52050614
8	0xbcc739d9	-0.024319576
9	0xbec29d32	-0.38010556
10	0x3d39c7ec	0.045356676
11	0xbd9d08fb	-0.076677285
12	0x3d4ba57b	0.04971836
13	0x3d37b237	0.044847693
14	0xbe054efe	-0.13018414
15	0x3dbb4f80	0.09146023
16	0xbe6bd337	-0.23029791
17	0x3d6230e0	0.055222392
18	0x3c4ca18d	0.012489689
19	0xbe042f37	-0.12908636
20	0x3cf486bf	0.029849408
21	0x3e085a23	0.13315634
22	0xbe27c6ba	-0.16384402
23	0xbd1bbff7	-0.03802487
24	0xbc9640a0	-0.018341362
25	0xbcca2bb6	-0.024679046
26	0x3dcf9825	0.10136441
27	0x3c0bfb46	0.008543795
28	0x3d3c1ccd	0.045925904
29	0xbe5ae475	-0.21376212
30	0xbe2cc748	-0.16872895
31	0xbe894aff	-0.2681503
32	0xbd6e240f	-0.058139857
33	0x3d164837	0.036689963
34	0xbc501330	-0.012699887
35	0x3e163316	0.14667925
36	0xbe1605cd	-0.1465065
37	0x3db09cf2	0.08623685
38	0xbebab561	-0.36466506
39	0xbdfe193b	-0.12407156
40	0x3e6813e8	0.22663844
41	0x3e279cdf	0.16368435
42	0xbe20854e	-0.15675852
43	0x3e14731b	0.14497034
44	0xbd9e0f31	-0.07717741
45	0xbd8a304b	-0.067474924
46	0xbf0f8c57	-0.56073517
47	0x3ccb927a	0.024850119
48	0xbebf3123	-0.37342176
49	0xbd602d95	-0.05473097
50	0x3e228838	0.15872276
51	0x3e202e5f	0.15642689
52	0xbced6b97	-0.028981967
53	0x3e9fc9e8	0.3120873
54	0xbeeed0b2	-0.46643597
55	0x3e009f1f	0.125607
56	0x3e0961e3	0.13416247
57	0xbd1ef80b	-0.03881077
58	0xbdce3036	-0.10067789
59	0x3d8f7512	0.07004751
60	0x3b61e989	0.0034471473
61	0xbedd5e32	-0.43235928
62	0xbe288485	-0.16456802
63	0xbd5fb444	-0.054615274
64	0xbd314c46	-0.04328563
65	0x3d4019ac	0.046899483
66	0x3e4a4ea0	0.19756556
67	0x3c8d03c9	0.017213719
68	0xbef0487a	-0.46930295
69	0x3cab69f8	0.020924553
70	0x3c44ca98	0.012011193
71	0x3d557bcb	0.05212001
72	0xbd62ffdc	-0.055419788
73	0x3dd5d0a1	0.104401834
74	0xbe1c5207	-0.15265666
75	0xbd04b21a	-0.032396413
76	0xbecb6084	-0.39722073
77	0xbc43e77e	-0.0119570475
78	0x3db5f74c	0.08885059
79	0xbd74ef77	-0.059798684
80	0x3ddd0300	0.10791588
81	0xbd714348	-0.058902055
82	0xbebc4f1f	-0.36779115
83	0xbbcde395	-0.0062832334
84	0xbd91c0ed	-0.07116876
85	0xbd4879a2	-0.048944123
86	0xba610583	-0.000858389
87	0xba92bb06	-0.0011194653
88	0xbef7e015	-0.4841315
89	0x3dee1d79	0.11626715
90	0x3bc028bc	0.005864231
91	0xbdda4f50	-0.10659659
92	0x3e00aecc	0.1256668
93	0x3e02fa8a	0.12790886
94	0xbdebefdc	-0.11520359
95	0x3dabd05e	0.08389352
96	0xbc27d975	-0.010244717
97	0x3e160fcc	0.14654464
98	0x3e061fb5	0.13098033
99	0xbc07189e	-0.008245615
100	0x3baf0dd0	0.0053422228
101	0xbb269e3e	-0.002542391
102	0xbd6c3c32	-0.057674594
103	0x3daab37e	0.08335017
104	0x3d243d6f	0.04009765
105	0xbb498697	-0.0030750388
106	0xbee0e922	-0.43927866
107	0x3e7e7192	0.24848011
108	0xbc2ca88b	-0.010538231
109	0xbeaa112f	-0.33216235
110	0xbf0d3ec1	-0.5517388
111	0xbe8e0188	-0.27735543
112	0xbda4ae5d	-0.0804107
113	0x3e844b0f	0.25838515
114	0x3d4f59ef	0.050622877
115	0xbd9f0574	-0.07764712
116	0x3dc5f14e	0.09665166
117	0x3d3b041a	0.04565821
118	0xbe2d88cf	-0.1694672
119	0x3e2988bd	0.16556068
120	0xbebb2deb	-0.3655847
121	0x3de7c4df	0.11316847
122	0x3d36ef5e	0.044661872
123	0xbe3f08ec	-0.18655747
124	0x3e47fd5f	0.19530247
125	0xbe9404e7	-0.2890999
126	0x3cd9ff1f	0.026610909
127	0xbd04588d	-0.03231101
128	0xbce595de	-0.028025564
129	0xbd716b97	-0.058940496
130	0x3c52a155	0.012855847
131	0x3cbe1857	0.023204966
132	0xbd8da42b	-0.06916078
133	0xbd9cbc80	-0.07653141
134	0x3bed6110	0.007244237
135	0x3d4d018c	0.050050303
136	0xbd67cbf0	-0.056590974
137	0xbcb51131	-0.022102924
138	0xbe10bb08	-0.14133847
139	0xbe8e927b	-0.2784613
140	0xbe321d5e	-0.17394015
141	0xbe163761	-0.14669563
142	0x3ccec0b9	0.025238382
143	0xbd0461d0	-0.032319844
144	0x3d9628a3	0.073319696
145	0x3b314fe9	0.0027055687
146	0xbc8e22e2	-0.017350618
147	0x3d530a25	0.051523346
148	0x3d5ad3c3	0.053424608
149	0xbddcce42	-0.10781528
150	0xbe3bf4d9	-0.1835512
151	0x3d0b63c2	0.034030683
152	0x3c25580a	0.010091791
153	0x3d332b18	0.04374227
154	0xbe114723	-0.14187293
155	0xbd3e711c	-0.04649459
156	0xbd80e6a3	-0.062939905
157	0x3d48b2f9	0.048998807
158	0xbe87569c	-0.26433265
159	0xbd2bcde4	-0.0419444
160	0x3c0f375a	0.008741224
161	0xbd9d4a90	-0.07680237
162	0xbd782561	-0.060582522
163	0xbe74120c	-0.2383501
164	0x3cf055be	0.02933776
165	0xbddb8be9	-0.10720045
166	0x3d93e2ad	0.07220969
167	0xbdcdbd71	-0.10045899
168	0x3c9e7933	0.019344902
169	0xbbfb9d51	-0.0076786657
170	0xbd3beea9	-0.0458819
171	0xbda033d5	-0.07822386
172	0x3d8c4b02	0.06850244
173	0xbd647518	-0.05577573
174	0x3c218d7c	0.009860393
175	0xbe3d107c	-0.1846332
176	0x3c80419a	0.015656281
177	0xbbabd57d	-0.0052439556
178	0xbdf2ba7c	-0.11851975
179	0xbd6fc45d	-0.058536876
180	0xbe200574	-0.1562708
181	0xbcf03a91	-0.029324802
182	0x3d96e8ef	0.07368647
183	0x3cc985e3	0.024599975
184	0xbdeab6b1	-0.11460627
185	0xbd8aa6a0	-0.067700624
186	0x3d387ae2	0.045039065
187	0xbda465dc	-0.08027241
188	0xbeaa9053	-0.33313236
189	0x3d9484d2	0.07251896
190	0xbdf17fea	-0.11791976
191	0xbd1cfb19	-0.038325403
192	0xbdb4a706	-0.0882092
193	0x3cbc24c1	0.022966744
194	0xbdc3153f	-0.09525537
195	0x3df4463f	0.11927461
196	0x3de01d48	0.10943085
197	0xbc7216cc	-0.014775943
198	0xbe48864c	-0.1958248
199	0xbea42fdb	-0.3206776
200	0xbcc53fc8	-0.024078265
201	0xbdd89c7a	-0.105767205
202	0x3cdf1aa9	0.027234392
203	0xbdf9320f	-0.12167751
204	0x3db1bbe6	0.08678417
205	0x3d4c3875	0.04985853
206	0xbd050917	-0.032479372
207	0xbe4c01cd	-0.19922562
208	0xbd93e264	-0.07220915
209	0x3d18568f	0.037191924
210	0x3da32641	0.07966281
211	0xbd83ade0	-0.064296484
212	0xbcb387dd	-0.02191537
213	0xbd80e7ef	-0.06294238
214	0x3d0ef853	0.03490479
215	0xbe2c7948	-0.1684314
216	0x3dc4d689	0.09611232
217	0xbd8e4fab	-0.06948789
218	0xbd744da6	-0.059644364
219	0xbd8dc5b4	-0.069224745
220	0x3d8d033e	0.06885384
221	0x3ca43a08	0.020047203
222	0x3d9ccc00	0.076560974
223	0x3c477a18	0.0121751055
224	0xbd5b4abb	-0.053538065
225	0xbd1a4f4e	-0.037673287
226	0xbde798ae	-0.11308418
227	0xbc8c02db	-0.017091205
228	0xbd0f5e2c	-0.03500192
229	0xbd3a7e9c	-0.0455309
230	0xbc934be5	-0.017980525
231	0xbd95dacc	-0.07317123
232	0x3c7504c5	0.01495475
233	0xbb818e0b	-0.0039537004
234	0x3c3dfa84	0.011595372
235	0xbe174bb7	-0.14774977
236	0xbe81468a	-0.2524913
237	0x3d1b24bd	0.037876833
238	0x3d9ff1f1	0.078098185
239	0x3da625e8	0.08112699
240	0x3d02d8e4	0.031945124
241	0x3c828923	0.015934533
242	0xbd9cd60f	-0.07658016
243	0xbda4093d	-0.080095746
244	0xbd054d33	-0.032544326
245	0xbe780f80	-0.24224663
246	0xbd9b83c8	-0.07593495
247	0x3c724807	0.0147876805
248	0x3ce32be9	0.027730899
249	0xbd792b57	-0.060832348
250	0xbe2746fa	-0.16335669
251	0x3d1bd0ca	0.038040914
252	0xbe1fb8f5	-0.155979
253	0x3c396152	0.011314707
254	0x39e7a5dd	0.0004418333
255	0x3d0fa399	0.03506813

classifier.fc.3.bias f4 [4]
0	0xbed8c8dc	-0.42340744
1	0x3dbd90b5	0.09256116
2	0xbca36bb5	-0.01994882
3	0x3c924f87	0.017860187

onnx::Conv_133 f4 [64, 14, 3]
0	0x3be6b570	0.007040672
1	0x3d9c41d6	0.07629745
2	0xbe16168c	-0.14657038
3	0xbdb97637	-0.09055751
4	0xbcd46d71	-0.025931092
5	0x3e12f7bf	0.1435232
6	0x3d19e854	0.03757508
7	0x3d3d0747	0.04614952
8	0xbcc5f503	-0.024164682
9	0x3ded3b78	0.115836084
10	0x3cbb6516	0.02287535
11	0x3d8ad275	0.06778423
12	0xbe2099ea	-0.15683714
13	0xbbf8e33c	-0.007595448
14	0xbca38aba	-0.01996361
15	0xbdd077c0	-0.101790905
16	0xbc855cca	-0.016279597
17	0xbe12d3af	-0.14338563
18	0x3e1d7d50	0.15379834
19	0xbda1adc0	-0.07894468
20	0x3daa3fdd	0.08312962
21	0xbea4ceab	-0.32188925
22	0xbe835ee4	-0.25658333
23	0xbe96c176	-0.29444474
24	0xbd9940be	-0.07483052
25	0x3d815a29	0.06316025
26	0xbd236491	-0.03989083
27	0xbd815103	-0.0631428
28	0x3d3d6919	0.046242807
29	0xbd496ff5	-0.049179036
30	0xbe1d08b4	-0.15335351
31	0x3d92566a	0.071453884
32	0xbdde62c6	-0.10858683
33	0xbce22b0e	-0.02760842
34	0xbc77d755	-0.015127023
35	0xbd92d686	-0.07169823
36	0xbdb4f1b8	-0.08835167
37	0x3d0cca2a	0.034372486
38	0x3e1c4dba	0.15264025
39	0x3de67f49	0.112547465
40	0x3e14ebf0	0.14543128
41	0x3d82e9ee	0.06392275
42	0xbca33f4f	-0.019927649
43	0x3da22af0	0.07918346
44	0x3e03ccc7	0.12871085
45	0xbd78c45b	-0.060734134
46	0xbd2b76cb	-0.041861337
47	0x3b0289f8	0.0019918662
48	0x3de83f4f	0.113402
49	0x3d438ee2	0.047743686
50	0xbd1c37d1	-0.03813917
51	0x3cb59bff	0.022169111
52	0xbdc9e3f7	-0.09857934
53	0xbe3bacca	-0.18327633
54	0x3cbb2066	0.022842597
55	0x3e16f980	0.14743614
56	0xbd211567	-0.03932705
57	0x3e3959ec	0.18100709
58	0x3b84c7f1	0.004052155
59	0x3ce2a508	0.027666584
60	0xbc6b9b8e	-0.014380349
61	0xbd8194b1	-0.06327189
62	0xbe0351a4	-0.12824112
63	0x3c6d994e	0.014501883
64	0x3dcf808c	0.1013194
65	0x3d0d00f5	0.03442474
66	0x3d5a2895	0.05326136
67	0x3d4a848a	0.049442805
68	0x3da244fc	0.07923314
69	0x3d9c91d1	0.07645
70	0x3dff433f	0.12463998
71	0x3b8d06d4	0.0043037925
72	0xbd4b2f5f	-0.049605723
73	0x3c9be7af	0.019031374
74	0xbcb0d771	-0.021587105
75	0xbdc8cd4b	-0.098047815
76	0xbd55e7a4	-0.052222863
77	0xbd46a634	-0.048498347
78	0x3daf07ab	0.085463844
79	0x3e1172ab	0.14203899
80	0xbe0160eb	-0.12634628
81	0x3daa3702	0.08311273
82	0x3d9a0f53	0.07522454
83	0x3cd47212	0.0259333
84	0x3cce4a9a	0.025182057
85	0x3d0768b7	0.03305885
86	0x3e0d37ef	0.13790868
87	0x3dcf1e3a	0.10113187
88	0xbbc69f16	-0.006061445
89	0x3c49d54d	0.012318921
90	0xbe10352e	-0.14082786
91	0x3d29fe56	0.04150232
92	0xbe5c9a1c	-0.21543163
93	0xbd918017	-0.07104509
94	0xbe6dbbd4	-0.23216182
95	0xbe3552e2	-0.17707399
96	0xbb10af2b	-0.0022077064
97	0xbe1463a1	-0.1449113
98	0xbe43ec44	-0.19133097
99	0xbdb4d98c	-0.08830556
100	0x3e25d0ed	0.1619298
101	0xbcd678d1	-0.026180657
102	0xbe393564	-0.18086773
103	0xbd6e8e15	-0.05824097
104	0x3db67d59	0.08910627
105	0x3bd58d12	0.006517061
106	0xbd3e19db	-0.046411376
107	0xbe2093de	-0.15681407
108	0xbd7786f1	-0.060431425
109	0xbe170a75	-0.14750083
110	0xbd07dd81	-0.033170227
111	0x3cdc7140	0.02690947
112	0x3cd94e8e	0.026526716
113	0xbdbd5108	-0.09243971
114	0x3e35d4bc	0.17756933
115	0x3d4e6667	0.050390627
116	0x3c6a30d8	0.014293872
117	0xbc800699	-0.015628146
118	0x3d3c43fe	0.04596328
119	0xbdd201be	-0.102542385
120	0x3d987efe	0.07446097
121	0xbd83a93c	-0.06428763
122	0xbdeaab03	-0.11458399
123	0x3d6c1ff5	0.057647664
124	0x3c9de573	0.019274449
125	0x3d9b644b	0.07587489
126	0x3eecb52d	0.46231976
127	0xbe6abc94	-0.229235
128	0x3f044833	0.5167267
129	0xbf0a10ea	-0.5393206
130	0xbe40e23a	-0.18836299
131	0x3f0778d2	0.5291873
132	0x3fb604ae	1.4220178
133	0x3fc22229	1.5166675
134	0x3f80b4b6	1.0055149
135	0x3e342ad8	0.17594469
136	0x3ca35db6	0.019942146
137	0x3f344afc	0.7042692
138	0xbd66db84	-0.05636169
139	0x3f211bf5	0.62933284
140	0x3ee70719	0.45122603
141	0x3dda596e	0.106615886
142	0xbf582c73	-0.84442824
143	0xbd7e3560	-0.06206262
144	0xbded8bfb	-0.11598965
145	0xbec89d8b	-0.39182696
146	0xbf269642	-0.65073025
147	0x3f50e12e	0.81593597
148	0x3ec89673	0.39177284
149	0x3f35ad1f	0.70967287
150	0x3f2b3c83	0.6688921
151	0xbe3fc251	-0.1872647
152	0xbd175ee8	-0.036955744
153	0x3e8a462f	0.2700667
154	0xbeb81337	-0.3595216
155	0x3f439678	0.7640147
156	0xbc2e5518	-0.010640405
157	0xbf3bebd6	-0.7340673
158	0xbe982315	-0.29714265
159	0x3e1ac011	0.1511233
160	0xbeb4f4dc	-0.35343063
161	0x3e088b03	0.13334279
162	0xbf10e505	-0.56599456
163	0xbe486a9a	-0.19571915
164	0x3f0347e4	0.5128157
165	0xbe81ad8a	-0.25327712
166	0xbefcae86	-0.493519
167	0x3f055285	0.5207904
168	0xbe31f327	-0.17377912
169	0xbd6a2158	-0.057160705
170	0xbd37fe9c	-0.04492055
171	0xbd23113d	-0.03981136
172	0x3d20f937	0.03930017
173	0x3dea500a	0.114410475
174	0x3e259948	0.16171753
175	0x3eb6649a	0.35623628
176	0x3de54f6d	0.1119679
177	0x3d1f457c	0.038884625
178	0x3e65537f	0.22395132
179	0x3e88d850	0.26727533
180	0x3e083d9b	0.1330475
181	0xbd302b37	-0.043009963
182	0xbe06eeb6	-0.13176998
183	0xbeb632eb	-0.35585722
184	0xbdbe4d98	-0.092921436
185	0xbea29853	-0.3175684
186	0xbbe50e13	-0.006990203
187	0x3eb33ab1	0.35005715
188	0x3e1ca090	0.15295625
189	0x3e4a58b9	0.19760408
190	0x3e293f36	0.1652802
191	0x3e19605f	0.14978169
192	0xbd9759ed	-0.07390199
193	0xbe1bef05	-0.15227897
194	0xbe7fc181	-0.2497616
195	0x3e512781	0.20425226
196	0xbe0274cc	-0.12739867
197	0x3e1daf82	0.15398982
198	0x3cd60215	0.02612404
199	0xbdb808c3	-0.08986046
200	0x3a6c32bb	0.0009010245
201	0x3d39311d	0.045212854
202	0xbd8ee02f	-0.069763534
203	0x3e011e28	0.1260916
204	0x3c69caa1	0.014269502
205	0xbe3d373d	-0.18478103
206	0x3d627e72	0.05529637
207	0x3e8653d6	0.26235837
208	0x3dcea478	0.10089964
209	0xbd6fd644	-0.05855395
210	0x3d965171	0.073397525
211	0x3d1a3576	0.03764864
212	0x3c123b2b	0.00892524
213	0x3cf46d7d	0.029837364
214	0xbddd5f14	-0.1080915
215	0x3b9403ab	0.004517039
216	0x3da65a86	0.08122735
217	0xbaa2c981	-0.0012419672
218	0xbc5b55c1	-0.013387145
219	0xbbdf2e73	-0.006810957
220	0xbd14b539	-0.03630564
221	0x3d589e6d	0.05288546
222	0x3bc7bdd6	0.0060956283
223	0xbc7df6bc	-0.015500721
224	0xbdb3a7fc	-0.08772275
225	0xbc722c61	-0.014781089
226	0xbd58ae12	-0.05290038
227	0x3daffa45	0.08592657
228	0x3dd32dd6	0.10311477
229	0x3d516428	0.051120907
230	0xbc8398a9	-0.016064005
231	0xbdd40ff6	-0.10354607
232	0xbdfe92e3	-0.1243036
233	0xbb9892a6	-0.0046561537
234	0x3df0c53e	0.11756371
235	0x3d5fc332	0.054629512
236	0x3dd599b3	0.104297064
237	0x3b831309	0.004000072
238	0xbbfcc0a1	-0.007713393
239	0x3c9c4559	0.019076036
240	0x3cedf7e2	0.029048864
241	0x3a0164c9	0.00049359776
242	0xbd2adec5	-0.041716356
243	0x3d699a33	0.05703182
244	0x3db44fcc	0.088042825
245	0x3d02fc10	0.031978667
246	0x3bbebd9d	0.0058209435
247	0xbd0a088d	-0.03369956
248	0x3d3e701d	0.04649364
249	0xbd736f1a	-0.059432127
250	0xbb88521a	-0.004160178
251	0xbdac5a5a	-0.08415671
252	0x3d6d1385	0.057879943
253	0xbbea5dfd	-0.0071523176
254	0x3cad28d4	0.021137632
255	0x3d8a2db9	0.06747002

onnx::Conv_134 f4 [64]
0	0xbdeb55fc	-0.114910096
1	0xbe80939a	-0.2511261
2	0xbd0ef560	-0.034901977
3	0xbe746c44	-0.23869425
4	0x3ce19a90	0.027539521
5	0xbddf5d1f	-0.10906433
6	0x3e2a4d2c	0.16631001
7	0x3da3482d	0.07972751
8	0xbcb4b5ce	-0.022059347
9	0x3dd094ed	0.10184655
10	0x3e245ce7	0.16051064
11	0x3d858ecc	0.06521377
12	0x3e95baac	0.29243982
13	0xbe9d3ddb	-0.30711254
14	0x3e298612	0.1655505
15	0x3e892ac0	0.26790428
16	0xbc397030	-0.0113182515
17	0x3c1af510	0.0094578415
18	0xbe81718a	-0.25281936
19	0x3d2f97c4	0.042869344
20	0xbcd5f4e4	-0.02611775
21	0x3d0b6a89	0.034037147
22	0xbe149bbe	-0.14512536
23	0xbe8310e1	-0.25598815
24	0xbddc4403	-0.1075516
25	0xbe601bb6	-0.21885571
26	0xbea4c2d8	-0.32179904
27	0x3e18844c	0.14894217
28	0x3d112552	0.035435982
29	0x3e2fe678	0.1717776
30	0xbe235f98	-0.15954435
31	0xbe7be93e	-0.24600694
32	0xbdaed96a	-0.08537562
33	0x3e621cbf	0.22081278
34	0xbe3efc00	-0.18650818
35	0xbeb4ee3a	-0.35338002
36	0xbea9c8df	-0.33161065
37	0x3dc56c35	0.096397795
38	0xbebef4a2	-0.37296015
39	0x3d1138e3	0.035454642
40	0x3e34903f	0.1763315
41	0xbe458d24	-0.19292122
42	0x3dd18d57	0.102320366
43	0x3e170946	0.14749631
44	0x3d8362b5	0.06415311
45	0xbe8b117a	-0.2716177
46	0xbe1bcc87	-0.1521474
47	0xbe0482d3	-0.1294053
48	0xbe5e3aa8	-0.21702063
49	0xbd835460	-0.06412578
50	0xbe7ff876	-0.24997124
51	0x3e4f29a5	0.2023073
52	0xbe4493c9	-0.19197
53	0xbe7c654f	-0.24648021
54	0xbe9a56a6	-0.30144233
55	0xbf72d424	-0.9485495
56	0x3d0298ac	0.03188388
57	0xbe0cd0cc	-0.13751525
58	0x3e3f52ba	0.18683901
59	0x3bf744e0	0.0075460523
60	0xbe6cb12a	-0.23114458
61	0xbdd28bba	-0.10280557
62	0x3d16662c	0.036718532
63	0x3e699b71	0.22813202

onnx::Conv_136 f4 [128, 64, 3]
0	0xbc0c90d5	-0.0085794525
1	0xbce9d498	-0.028543755
2	0xbc9dd180	-0.019264936
3	0xbc8fe159	-0.017563509
4	0xbd468eab	-0.048475903
5	0xbd86b63d	-0.06577728
6	0x3c93c8d2	0.018040095
7	0xbb783c1a	-0.003787762
8	0xbd31d467	-0.043415453
9	0x3d1687d4	0.03675063
10	0x3cb1981b	0.021678975
11	0x3cc36342	0.02385104
12	0x3cd0bd3e	0.025480863
13	0x3c1e3d21	0.009658129
14	0xbba4912e	-0.0050221896
15	0x3cd8f030	0.026481718
16	0x3c18f58f	0.0093358895
17	0x3ccd2490	0.025041848
18	0x3cc14f09	0.023597257
19	0x3d9b76ac	0.07590994
20	0x3d623580	0.055226803
21	0xbb78b8cb	-0.0037951942
22	0xbc1a515c	-0.009418812
23	0x3d5fc5da	0.054632045
24	0xbd0d89bc	-0.03455518
25	0xbd7e80a8	-0.062134415
26	0xbd693117	-0.05693158
27	0x3d36b78b	0.044608634
28	0xbcd168f0	-0.025562733
29	0xbcd7f021	-0.02635962
30	0xbb9cc90e	-0.00478471
31	0x3becba15	0.007224331
32	0xbbb3d5cf	-0.0054881345
33	0x3c8f81a1	0.017517867
34	0xbcade9f2	-0.021229718
35	0xbbc19727	-0.0059079113
36	0x3cf012b7	0.029305799
37	0xbc4cfa3a	-0.012510831
38	0x3d802a9e	0.062581286
39	0x3d930b6f	0.07179915
40	0x3d921bda	0.071342185
41	0x3dbdb961	0.09263874
42	0x3d025545	0.0318196
43	0xbc8d16ca	-0.01722278
44	0x3d10a109	0.035309825
45	0x3c3baaeb	0.011454324
46	0x3c8d4068	0.017242625
47	0x3d088cc4	0.03333737
48	0xbcd645ac	-0.026156269
49	0xbd02fa6e	-0.03197711
50	0xbad99061	-0.0016598814
51	0x3c8ccb86	0.017186891
52	0xbc100619	-0.008790516
53	0x3c1fd857	0.009756169
54	0xbd6535b9	-0.055959437
55	0x3b21de3a	0.0024699108
56	0x3b1e2e89	0.0024136624
57	0x3ca72166	0.020401668
58	0xbd1567e7	-0.036476042
59	0x3c89bf2f	0.016814796
60	0xbcb04dfa	-0.021521557
61	0xbd751fe2	-0.05984486
62	0x3b47ada7	0.0030468495
63	0xbd8fae8c	-0.07015714
64	0xbd64e0a4	-0.055878296
65	0xbd261b18	-0.040553182
66	0x3c930d45	0.017950663
67	0xbbc6bab5	-0.0060647377
68	0xbc4bf7aa	-0.012449184
69	0xbc9d534b	-0.019204756
70	0x3c8a877d	0.016910309
71	0xbc919589	-0.0177715
72	0x3ceaa16c	0.028641425
73	0x399d655e	0.00030020898
74	0x3b494a05	0.0030714285
75	0x3c30a9cf	0.010782673
76	0xbcddccb3	-0.027075147
77	0xbcdd012e	-0.026978102
78	0xba9a7c07	-0.0011786231
79	0xbcb78442	-0.022401933
80	0xbc9f2226	-0.019425463
81	0x3dab8d40	0.08376551
82	0x3d37fec2	0.04492069
83	0x3d2e44e2	0.04254616
84	0x3bcec3ea	0.006309976
85	0x3cdbf044	0.026847966
86	0xba75f336	-0.00093822496
87	0x3c20fb0d	0.00982548
88	0x3cf7a1b9	0.030228483
89	0x3c188f59	0.0093115205
90	0x3c589002	0.013217928
91	0x3da1b5b9	0.07895989
92	0x3d6ae3a7	0.057346012
93	0xbcfdde34	-0.030989744
94	0xbc8f6acc	-0.01750698
95	0xbcd70e09	-0.02625181
96	0xbc72cb03	-0.01481891
97	0x3d0274d9	0.031849716
98	0x3c22c0ec	0.0099336915
99	0x3dbe596d	0.092944
100	0x3da95c8f	0.08269607
101	0x3d84eb40	0.06490183
102	0xbd24bc5c	-0.040218696
103	0xbbea5974	-0.007151777
104	0x3c25fa4d	0.010130477
105	0xbd05fc98	-0.032711595
106	0xbd5cb07c	-0.053879246
107	0x3bc7709d	0.0060864226
108	0x3cd34926	0.025791716
109	0x3c55c29e	0.013046889
110	0x3d39cd73	0.045361947
111	0xbcab31af	-0.020897714
112	0xbbea4a8d	-0.0071500004
113	0x3c50bce4	0.012740348
114	0xbd35bb54	-0.044368103
115	0x3c78b0ac	0.015178841
116	0x3bb95b90	0.005656667
117	0xbc39dd76	-0.011344304
118	0x3d51755d	0.051137317
119	0xbba4a715	-0.0050248005
120	0xbcf393bc	-0.029733531
121	0x3c17926d	0.009251219
122	0x3c0de32d	0.00866012
123	0x3a297016	0.00064635405
124	0xbcdba6cc	-0.026812933
125	0xb9c8d63f	-0.00038306598
126	0x3b963ff6	0.0045852615
127	0x3c8906f4	0.016726948
128	0xbcec003c	-0.028808706
129	0xbc0a4954	-0.008440334
130	0x3d5b8bcb	0.053600114
131	0x3b807bb6	0.0039209975
132	0xbc8cde3f	-0.017195819
133	0xbcd08c29	-0.025457459
134	0x3cd941cf	0.026520638
135	0xb98dc70e	-0.00027041923
136	0x3bb03d9f	0.0053784396
137	0x3ca1fa41	0.01977265
138	0xbc3983ed	-0.011322957
139	0xbb3ee73f	-0.0029129533
140	0xbd6b62af	-0.05746716
141	0x3d83c58e	0.06434165
142	0x3d7c439a	0.061587907
143	0x3d72198c	0.059106395
144	0x3c96218a	0.01832654
145	0x3c9c761c	0.019099288
146	0xbcd5921e	-0.02607065
147	0x3d36f219	0.044664476
148	0xbc1e398a	-0.009657273
149	0x3c23bf67	0.009994364
150	0xbd1e6c24	-0.03867735
151	0x3be44a16	0.0069668395
152	0xbd66f680	-0.056387424
153	0x3d00f636	0.031484805
154	0x3ceced7d	0.028921837
155	0xbbec3a53	-0.007209101
156	0xbcfceb1b	-0.030873826
157	0xbd28464b	-0.04108266
158	0xbd9e84e0	-0.07740188
159	0xbd059c2a	-0.032619633
160	0x3cd89966	0.026440334
161	0xbc573bf1	-0.01313685
162	0x3c5a58eb	0.013326864
163	0xbbffd120	-0.007806912
164	0x3c1e66e7	0.0096680885
165	0xbcfeb923	-0.03109414
166	0x3b63ed25	0.00347788
167	0xbbe40fce	-0.006959892
168	0x3c693603	0.014234069
169	0xbcae3d15	-0.02126936
170	0x3d35a65b	0.044348102
171	0xbcf81101	-0.030281546
172	0xbcf3820d	-0.029725099
173	0xbccbba0e	-0.024868991
174	0x3cb61088	0.02222468
175	0x3c8f6fa0	0.017509282
176	0x3d4be4d0	0.04977876
177	0x3d54ef71	0.05198616
178	0x3d878ae4	0.06618288
179	0x3bf8b551	0.007589974
180	0x3bc575bf	0.0060259993
181	0x3cb741c7	0.022370232
182	0x3ced4872	0.028965209
183	0xbd22dac9	-0.03975943
184	0x3cb1e676	0.021716338
185	0xbd06a9d9	-0.032876823
186	0x3d65824d	0.056032468
187	0x3d2e700b	0.04258732
188	0x3c9bde93	0.01902703
189	0xbcc284d4	-0.023744978
190	0xbac6dc39	-0.0015171833
191	0xbd17296a	-0.03690473
192	0xbc9f5686	-0.019450437
193	0xbc88165b	-0.016612222
194	0xbbbe931a	-0.0058158757
195	0xbc3fd6d0	-0.01170893
196	0x3caaa797	0.020831866
197	0x3cb3d7bb	0.021953454
198	0x3cc5fd3e	0.024168607
199	0x3c546b0d	0.012964976
200	0x3d72a049	0.05923489
201	0xbc870e79	-0.016486393
202	0xbb4c95a1	-0.0031217115
203	0x3c028309	0.0079658115
204	0xbd8fc8d4	-0.07020727
205	0xbcbe4e70	-0.023230761
206	0xbcb5e9eb	-0.022206267
207	0xbd321d5a	-0.043485023
208	0xbb8a0951	-0.0042125364
209	0x3c8076cf	0.015681652
210	0x3ae190e0	0.0017209314
211	0xbd34d5fd	-0.044149388
212	0xbd6d9af1	-0.05800909
213	0xbbac8ada	-0.005265576
214	0xbd115bec	-0.035488054
215	0xbcffdefb	-0.031234255
216	0x3ca57fd7	0.02020256
217	0x3d8e8c22	0.06960322
218	0x3da6cd5e	0.081446394
219	0xbd329f05	-0.043608684
220	0xbd06fd21	-0.032956246
221	0xbd07282a	-0.032997288
222	0x3b764014	0.0037574815
223	0x3cde486a	0.02713414
224	0xbd1b1595	-0.03786238
225	0xbca874f4	-0.02056358
226	0x3cde24c3	0.027117139
227	0xbc9f2726	-0.019427847
228	0x3cec52ad	0.028848017
229	0x3d022481	0.031773094
230	0xbc0a136c	-0.008427482
231	0xbcf89179	-0.030342804
232	0x3c18dded	0.009330255
233	0xbd3bc91c	-0.04584609
234	0xbd21585f	-0.039390918
235	0xbd667928	-0.056267887
236	0xbd404e4b	-0.046949666
237	0x3b635001	0.0034685137
238	0xbcba3a3c	-0.022732846
239	0x3cd2c4e6	0.025728654
240	0x3abb90e2	0.0014310146
241	0xbcc7da49	-0.024396079
242	0x3d2ed71e	0.04268562
243	0xbcee1301	-0.029061796
244	0x3c117ca4	0.008879814
245	0xbd07a8b5	-0.033119876
246	0x3c8e7859	0.01739137
247	0xbcbd533c	-0.023110978
248	0xbcbfb8c3	-0.023403531
249	0x3d3d4baa	0.046214737
250	0x3d49a91e	0.04923355
251	0x3d4064ad	0.046971012
252	0x3c7b3d1d	0.015334395
253	0x3b45085c	0.0030064797
254	0xbd0ce571	-0.0343985
255	0x3d3cbe00	0.046079636

onnx::Conv_137 f4 [128]
0	0xbf03f7a5	-0.5154975
1	0x3eaab144	0.33338368
2	0xbf959aa8	-1.1687822
3	0x3eeb7479	0.459873
4	0x3ed9a691	0.42509893
5	0xbef22e8a	-0.4730113
6	0xbba236a8	-0.004950363
7	0x3f406100	0.7514801
8	0x3fa82ae4	1.3138089
9	0xbda975f8	-0.08274454
10	0x3eeb6d75	0.45981947
11	0x3dec5b4c	0.11540851
12	0x3e4dbfa6	0.2009264
13	0xbfbd75fb	-1.480163
14	0xbf5becd0	-0.8590822
15	0xbf2c39d4	-0.6727574
16	0x3f80ce74	1.0063004
17	0xbfb3a1b9	-1.4033729
18	0xbe818cbe	-0.2530269
19	0xbf289644	-0.6585429
20	0xbf2d8cb2	-0.6779281
21	0x3fed315b	1.8530687
22	0x3f605d75	0.87642604
23	0xbea5703b	-0.32312188
24	0x3f6b2f1f	0.91868776
25	0x3e9fb15d	0.31190005
26	0xbea876bb	-0.32903084
27	0xbddabd62	-0.10680653
28	0xbf9f11ea	-1.2427342
29	0x3f49e9bf	0.78872293
30	0x3f506ff4	0.81420827
31	0x3f30a02f	0.6899442
32	0x3ec1dec2	0.37865263
33	0xbdac09a2	-0.08400275
34	0xbf65045e	-0.8945979
35	0x3ec57179	0.38563135
36	0x3f5c4c7b	0.860542
37	0x3f805b0b	1.0027784
38	0x3fb3481f	1.4006385
39	0x3f77b64b	0.9676253
40	0x3f508fb9	0.81469303
41	0xbe921ae2	-0.28536135
42	0x3fc5ecab	1.546285
43	0x3f4157c6	0.75524557
44	0x3e8cea7c	0.27522647
45	0xc03bf006	-2.9365249
46	0x3f5478d5	0.82996875
47	0xbe5cc2c0	-0.21558666
48	0xbf44c137	-0.7685732
49	0x3f1c0dc9	0.60958534
50	0x3f99a531	1.2003537
51	0x3e50642a	0.2035071
52	0x3f61c9eb	0.8819873
53	0x3ec14e0d	0.3775486
54	0x3f1bd757	0.6087546
55	0x3f4947c3	0.78625125
56	0x3f00f030	0.503665
57	0xbe49f4f8	-0.19722354
58	0x3efe56b5	0.49675527
59	0x3f107829	0.5643335
60	0xbeb06359	-0.34450796
61	0x3f0aae49	0.5417219
62	0xbf2cfc5a	-0.6757256
63	0xbf3bf9e1	-0.7342816
64	0xc000d8bb	-2.0132282
65	0x3f40e85d	0.7535456
66	0x3e83f6a8	0.2577412
67	0x3f9e527f	1.2368926
68	0x3f7d8047	0.9902386
69	0x3f80ac15	1.0052515
70	0xbf565f7c	-0.8373945
71	0x3f93b53a	1.1539681
72	0x3f54afa0	0.8308048
73	0x3f4df151	0.80446345
74	0x3f45b164	0.772238
75	0xbe829d17	-0.25510475
76	0xbfcaede9	-1.5853854
77	0xc00945be	-2.1448817
78	0x3e73a9e3	0.23795275
79	0xbe74bd58	-0.23900354
80	0x3f4c9db3	0.7992813
81	0xbe505f97	-0.20348965
82	0x3e705008	0.2346803
83	0x3f021c7b	0.5082471
84	0x3e3e1e0b	0.18566148
85	0x3eadd76c	0.33953416
86	0xbfd60b8a	-1.6722271
87	0x3f9bd61c	1.2174716
88	0x3e8b97a4	0.2726413
89	0xbf02c331	-0.5107909
90	0xbf5c9702	-0.8616792
91	0x3e8e3b22	0.2777949
92	0xbec6c8ab	-0.38824973
93	0x3fa74f78	1.3071127
94	0xbde93bda	-0.11388369
95	0xbf748ed2	-0.95530427
96	0x3f216f06	0.63060033
97	0xbde5d214	-0.1122171
98	0x3e10eea8	0.1415354
99	0x3fa3b8c8	1.2790766
100	0xbd4206bc	-0.047369704
101	0x3f4bff50	0.7968645
102	0xbfc2ce43	-1.5219196
103	0x3fa5037e	1.2891691
104	0xbe6a8624	-0.22902733
105	0x3edf9fd4	0.43676627
106	0x3e9bb122	0.3040858
107	0x3f219bf5	0.63128597
108	0xbd96582b	-0.073410355
109	0x3fa7b3ce	1.3101747
110	0x3eec01a6	0.46095008
111	0x3f916764	1.1359677
112	0xbf3f6772	-0.7476722
113	0x3eac74a3	0.33682737
114	0xbe6584c8	-0.22413933
115	0x3f094c62	0.53632176
116	0xbf3c5036	-0.7355989
117	0xbf18efba	-0.59740794
118	0x3f7c1a3c	0.9847753
119	0x3f91bae3	1.1385158
120	0x3f427820	0.75964546
121	0xbe011d28	-0.12608778
122	0xbf14fd02	-0.5819856
123	0xbf6ec403	-0.9326784
124	0x3f8627e9	1.048093
125	0x3f1e92aa	0.6194254
126	0x3f63db99	0.89006954
127	0xbfac5238	-1.3462591

onnx::Conv_139 f4 [128, 128, 3]
0	0x3c2951c7	0.010334439
1	0x3d6228c0	0.055214643
2	0x3d255fc4	0.040374532
3	0x3cadcdf1	0.021216365
4	0xbd7d4f7e	-0.061843388
5	0x3cbda2ad	0.023148859
6	0xbd812ece	-0.063077554
7	0xbdb5b2a8	-0.088719666
8	0xbd2f131a	-0.042742826
9	0x3e1e995f	0.15488194
10	0x3d8474dd	0.064676024
11	0x3d961fde	0.07330297
12	0x3ca99c35	0.020704368
13	0xbd6eb91f	-0.058282014
14	0xbd936665	-0.071972646
15	0x3db7b227	0.08969527
16	0x3d9ab4ca	0.07554014
17	0x3d7c8a59	0.061655376
18	0xbc764ff0	-0.015033707
19	0xbc9bd4de	-0.019022401
20	0xbbbffc67	-0.005858946
21	0x3d103994	0.03521116
22	0xbd1222ae	-0.035677604
23	0x3c969a41	0.0183841
24	0xbd264d16	-0.04060086
25	0xbcc16547	-0.023607863
26	0xbd5b65ca	-0.05356387
27	0xbda6f918	-0.081529796
28	0xbdf00ae6	-0.11720829
29	0xbd542ea4	-0.051802292
30	0x3c996a15	0.018727342
31	0xbd4730b1	-0.04863042
32	0xba25b980	-0.0006321892
33	0x3d146389	0.036227737
34	0x3d0dc5b3	0.03461237
35	0xbd75aba3	-0.05997814
36	0x3bd9ebeb	0.006650438
37	0xbcac21e0	-0.021012247
38	0xbc1bbfe7	-0.009506202
39	0xbd48fd8b	-0.049069922
40	0xbd7076ac	-0.058706924
41	0xbd86faf0	-0.06590831
42	0xbcabdc79	-0.020979153
43	0xbc253045	-0.010082309
44	0x3c547312	0.012966888
45	0x3d917eea	0.07104285
46	0x3db9df1b	0.09075757
47	0x3de9310f	0.1138631
48	0x3c868aba	0.016423572
49	0xbcda45ab	-0.026644548
50	0xbd1fdd02	-0.03902913
51	0x3c687ab5	0.014189412
52	0x3d246cdc	0.04014288
53	0x3d9c1ba5	0.0762246
54	0x3bf36b6f	0.0074285786
55	0x3c5af5d0	0.01336427
56	0x3cc73597	0.024317546
57	0x3d0dd95c	0.03463112
58	0x3a6bc1e2	0.00089934294
59	0x3d7ccb11	0.061717097
60	0x3d5269ee	0.051370554
61	0x3c251130	0.010074899
62	0x3d933563	0.07187917
63	0xbcf6e6c0	-0.030139327
64	0x3c16194f	0.0091613075
65	0xbce968f4	-0.028492428
66	0xbd968d42	-0.073511615
67	0xbbf176ec	-0.007368913
68	0x3cbd4d1f	0.023108063
69	0xbd65c802	-0.056098945
70	0xbd7e1be2	-0.06203831
71	0xbdb434f8	-0.087991655
72	0xbcec2c38	-0.028829679
73	0xbb40af24	-0.0029401267
74	0xbccddd1d	-0.02512985
75	0x3d4ca7d1	0.04996473
76	0x3d32cf8e	0.04365497
77	0x3a64d143	0.0008728692
78	0xbdebd99d	-0.11516116
79	0xbe021d5e	-0.12706515
80	0xbdf3b9f3	-0.119007014
81	0xbd861d06	-0.065485045
82	0xbe0cc40f	-0.13746665
83	0xbdef89e9	-0.11696226
84	0xbd8816e0	-0.06644988
85	0xbe0ddc1c	-0.13853496
86	0xbd60182a	-0.054710545
87	0x3d7881c8	0.060670644
88	0x3c5d8f12	0.01352288
89	0x3d345841	0.044029478
90	0xbbebf5ea	-0.007200946
91	0xbc84136c	-0.016122542
92	0x3d55ae9f	0.052168485
93	0xbbce4410	-0.006294735
94	0xbd83c818	-0.06434649
95	0x3c862583	0.016375309
96	0x3d4c751f	0.049916383
97	0x3c9aac5c	0.018881015
98	0x3d854678	0.065075815
99	0x3b70309c	0.0036650067
100	0xbc7a58ee	-0.015279992
101	0xbd47f80a	-0.048820533
102	0x3cfe0cde	0.031011995
103	0x3df4b871	0.11949242
104	0x3d5c9dfc	0.053861603
105	0x3de77cff	0.11303138
106	0x3db2db19	0.08733196
107	0x3cccb004	0.024986275
108	0x3cf734aa	0.03017648
109	0xbcc779f5	-0.024350146
110	0x3d0b2b7d	0.03397702
111	0xbd4acc1b	-0.049511056
112	0xbc9892a5	-0.018624613
113	0x3c6c3896	0.014417788
114	0x3d561395	0.05226477
115	0xbcbfb463	-0.023401445
116	0x3d1aacf0	0.037762582
117	0xbd547577	-0.051869836
118	0xbded7e2e	-0.115963325
119	0xbdd1a48f	-0.10236465
120	0xbd052321	-0.032504205
121	0xbd8ce3de	-0.068794
122	0xbdaed6a0	-0.0853703
123	0xbc54d0be	-0.012989221
124	0xbd21b088	-0.039474994
125	0x3d04c620	0.03241551
126	0x3cb2b8ec	0.021816693
127	0x3dad3e3e	0.084591374
128	0x3d807147	0.06271606
129	0x3da93e1e	0.08263801
130	0x3db66d09	0.089075156
131	0x3dca6465	0.0988243
132	0xbc55c2d9	-0.013046944
133	0xbd469951	-0.048486058
134	0x3b33afdd	0.0027418055
135	0x3daa9f9b	0.083312236
136	0x3dbbf752	0.09178032
137	0xbc5516ea	-0.013005951
138	0xbe260ea2	-0.1621652
139	0xbdfdd812	-0.12394728
140	0xbe1e0b53	-0.15434007
141	0xbd51ffa1	-0.051269177
142	0xbd7a5993	-0.06112058
143	0xbbf89929	-0.0075866175
144	0xbd1f31fa	-0.03886602
145	0xbcf410ba	-0.029793132
146	0xbcb38f55	-0.021918932
147	0xbd9a52cc	-0.075353235
148	0xbe285569	-0.16438831
149	0xbd43b454	-0.047779396
150	0xbdb47c1f	-0.08812737
151	0xbdd68d36	-0.104761526
152	0xbd07714d	-0.033067036
153	0x3d8cb179	0.06869788
154	0x3daae242	0.083439365
155	0x3d8fd489	0.0702296
156	0xbe1ec1ca	-0.15503612
157	0xbe1134c9	-0.14180292
158	0xbe40c3fd	-0.18824764
159	0xbd3249a7	-0.04352727
160	0x3c81b349	0.01583256
161	0xbd022d82	-0.03178168
162	0xbe040577	-0.1289271
163	0xbe3aefb8	-0.18255508
164	0xbe5f9b9b	-0.21836703
165	0x3ccea722	0.02522618
166	0x3bfd5677	0.0077312547
167	0xbce0027f	-0.02734494
168	0xbda1d751	-0.079023965
169	0xbda4b312	-0.080419675
170	0xbd8ee5d2	-0.069774285
171	0xbd74da8c	-0.059778735
172	0xbd260403	-0.04053117
173	0x3c0f8466	0.008759594
174	0x3c6898ec	0.014196616
175	0x3c6e5a47	0.014547891
176	0xbcbd96b1	-0.023143144
177	0xbcef4c0e	-0.02921107
178	0xbca16153	-0.019699728
179	0xbcdef088	-0.027214304
180	0x3cc9c782	0.024631266
181	0x391e08b2	0.00015071293
182	0x3c5b385f	0.013380139
183	0x3c897b5b	0.016782453
184	0xbd949454	-0.07254854
185	0xbda3e5fd	-0.08002851
186	0x3d7847e3	0.06061543
187	0xbc4cdbd5	-0.012503584
188	0xbc196899	-0.009363317
189	0x3d1078fa	0.035271622
190	0xbd7ad5ac	-0.06123893
191	0xbcf0416f	-0.029328076
192	0x3c7c5164	0.015400264
193	0x39c7524a	0.00038017548
194	0x3c698cab	0.014254729
195	0x3d034bda	0.03205476
196	0xbc108f12	-0.008823173
197	0x3d3c704e	0.04600554
198	0xbd8a6e73	-0.06759348
199	0xbdf7cb3a	-0.12099309
200	0xbd94f54f	-0.072733514
201	0x3d6c0d42	0.05762983
202	0x3d8e9b81	0.06963254
203	0x3d3605ae	0.04443901
204	0x3ab40b26	0.0013736233
205	0xbd8004a2	-0.06250884
206	0x3c898923	0.016789025
207	0xbda5840d	-0.08081827
208	0xbdcd17f2	-0.10014333
209	0xbdc03006	-0.0938416
210	0xbccaae22	-0.024741236
211	0xbd087fa3	-0.03332485
212	0xbc1bd90f	-0.0095122
213	0xbe1451c2	-0.14484313
214	0xbe249372	-0.16071871
215	0xbde2d566	-0.11075859
216	0x3b94d022	0.004541413
217	0xbddf428d	-0.109013654
218	0xbd2abdbf	-0.041684862
219	0xbd4aea1c	-0.04953967
220	0xbd637d55	-0.055539448
221	0xbdae1de5	-0.08501796
222	0x3d64e85b	0.055885654
223	0x3cae6059	0.021286177
224	0x3d7978eb	0.060906332
225	0x3c87114b	0.016487738
226	0xbd251c13	-0.040309977
227	0x3d242ac8	0.040079862
228	0x3ca0ec00	0.019643784
229	0x3d049e03	0.032377254
230	0x3d228c3d	0.039684523
231	0x3d846b93	0.06465831
232	0x3cef9557	0.029246015
233	0x3d2527bc	0.040321097
234	0x3ccd268d	0.025042797
235	0x3cd7ac89	0.026327388
236	0x3c5fbec9	0.013656327
237	0x3cbe433d	0.023225421
238	0xbbb0f929	-0.005400796
239	0x3cc20a5f	0.023686586
240	0xbc9c8b79	-0.019109474
241	0xbcea0342	-0.028566007
242	0xbcab9494	-0.020944871
243	0xbd14ccf3	-0.036328267
244	0x3d151395	0.036395628
245	0x3d7f234f	0.062289532
246	0x3d919f22	0.0711043
247	0x3c012434	0.007882167
248	0x3cb50988	0.022099271
249	0xbc5875f2	-0.013211714
250	0xbd52c097	-0.0514532
251	0xbd1169a1	-0.035501126
252	0x3d090a02	0.03345681
253	0xbd6bf3e5	-0.057605643
254	0xbbfe0591	-0.0077521284
255	0x3b2062ce	0.0024472955

onnx::Conv_140 f4 [128]
0	0x3f62ee93	0.88645285
1	0x3f687967	0.90810245
2	0xc006fb4b	-2.1090877
3	0x3e873bb0	0.26412725
4	0x3e45214b	0.19250982
5	0x3f6fc28c	0.9365623
6	0xbfc12467	-1.5089234
7	0xbf27da27	-0.6556725
8	0x401e839c	2.4767828
9	0x3f9b7f46	1.2148216
10	0x3f0687b4	0.52550817
11	0xbf30685e	-0.6890925
12	0xc00fb5b4	-2.2454653
13	0x3fcae2ad	1.5850426
14	0xbf91f3a0	-1.1402473
15	0xbe6868f7	-0.22696291
16	0x403023f8	2.7521954
17	0xbf8d6ab5	-1.1048189
18	0xbfd68920	-1.6760597
19	0xbf81ca18	-1.0139799
20	0x3fbee6a6	1.4914138
21	0x3f8b753f	1.0895156
22	0x3fbfce59	1.4984847
23	0x4013a12c	2.3067122
24	0x3f172261	0.59036833
25	0xbe7022b4	-0.23450738
26	0xbe7deb04	-0.24796683
27	0x40221aa1	2.5328753
28	0xc06d7f43	-3.7108924
29	0x3f8f41e6	1.1191986
30	0xbf79740d	-0.97442704
31	0xbfeba4d0	-1.8409672
32	0x3f83b5cd	1.0289856
33	0xbfab09d3	-1.3362373
34	0xc0155e18	-2.333868
35	0x3fe2c0dc	1.7715106
36	0x3fffdbe8	1.9988985
37	0xbffd24ed	-1.9776894
38	0xc014f52d	-2.3274643
39	0xbf1b96ef	-0.6077718
40	0x3f046995	0.51723605
41	0x3f32c0a4	0.69825196
42	0x3f4601cd	0.773465
43	0xbf060365	-0.5234893
44	0xbf1ad372	-0.6047889
45	0xbf83aa27	-1.0286301
46	0xc02a0fb2	-2.657208
47	0x400bd884	2.18509
48	0x3da13d92	0.07873072
49	0x3ea1981f	0.31561372
50	0x4005bf6b	2.0898082
51	0x3fa3c326	1.279393
52	0x3fb8680a	1.440675
53	0x4005fe36	2.0936408
54	0x3f086526	0.5327934
55	0xc0369104	-2.852601
56	0xc0088339	-2.1330092
57	0xbf5ebe0d	-0.87008744
58	0x3f9bf25a	1.2183335
59	0x3f26107e	0.64868915
60	0x4000d75b	2.0131443
61	0xbfe7f6e6	-1.8122222
62	0xbf9cd17c	-1.225143
63	0xbeb27ae8	-0.34859395
64	0xbef183ef	-0.4717097
65	0x3dda8de5	0.106715955
66	0xbfc69743	-1.5514911
67	0xbf89dd6f	-1.0770701
68	0xbf5cd56d	-0.8626316
69	0xc03e7979	-2.976164
70	0xbf924a2a	-1.1428883
71	0xbe8fedc4	-0.28111088
72	0x4021339e	2.5187755
73	0x3f60c1aa	0.8779551
74	0x3f810b28	1.008153
75	0xbf0786e2	-0.5294019
76	0x40386b62	2.8815541
77	0xc00809be	-2.1255946
78	0xbfb3e274	-1.4053483
79	0x3f5bf434	0.859195
80	0xc0502902	-3.252503
81	0x3dda4b47	0.10658889
82	0x3fb1a7fe	1.3879392
83	0x40464473	3.0979278
84	0x3e8520e8	0.26001668
85	0xc023e4d3	-2.5608413
86	0x3fd4e340	1.6631851
87	0xbda53432	-0.08066596
88	0xbfac89dd	-1.3479573
89	0x401f1622	2.4857259
90	0xbfab2869	-1.3371707
91	0x3f4e24e4	0.8052504
92	0x3ff99c5c	1.9500842
93	0x3f939d72	1.1532423
94	0x400585de	2.0862956
95	0xbfe4295e	-1.7825124
96	0x3f13e784	0.5777514
97	0x3ddbc40a	0.10730751
98	0x3f0ec44b	0.5576827
99	0x406ac50e	3.6682773
100	0xbf8fb7f9	-1.1228019
101	0x3ea03b48	0.31295228
102	0x404b84a3	3.1799705
103	0xbfd61c6a	-1.6727421
104	0xbe89dce3	-0.26926336
105	0x3e839747	0.25701353
106	0x3eed52b3	0.46352157
107	0xbfa6d90b	-1.3034986
108	0x3f55ee8f	0.83567137
109	0xbf8999c4	-1.075005
110	0x3f82f47f	1.0230864
111	0x3fbf3f54	1.4941201
112	0x3ed26b3f	0.41097447
113	0x3f86eeda	1.0541642
114	0x3f58d64c	0.8470199
115	0xbf13d559	-0.5774742
116	0x3fb72ca2	1.4310496
117	0xc00740fb	-2.113341
118	0x3f8ca7d7	1.0988721
119	0xbfa6ddf7	-1.3036488
120	0xbf798357	-0.97466034
121	0x3d131cfa	0.035916306
122	0xbfa8cd36	-1.3187625
123	0x3f12cfcf	0.5734834
124	0x3ea8fd44	0.33005726
125	0x3fd7c10b	1.6855787
126	0x400993cd	2.149646
127	0xc02e16bb	-2.7201374
